…
ual_proj.0.weight, levels.3.blocks.1.mixer.residual_proj.0.bias, levels.3.blocks.1.mixer.residual_proj.2.weight, levels.3.blocks.1.mixer.residual_proj.2.bias, head.weight, head.bias

filter_bias_and_bn
===================================================================================================================
Layer (type:depth-idx)                                            Output Shape              Param #
===================================================================================================================
UltraScanNet                                                      [1, 3]                    --
├─PatchEmbedLearnedPos: 1-1                                       [1, 80, 56, 56]           250,880
│    └─Identity: 2-1                                              [1, 3, 224, 224]          --
│    └─Sequential: 2-2                                            [1, 80, 56, 56]           --
│    │    └─Conv2d: 3-1                                           [1, 32, 112, 112]         864
│    │    └─BatchNorm2d: 3-2                                      [1, 32, 112, 112]         64
│    │    └─ReLU: 3-3                                             [1, 32, 112, 112]         --
│    │    └─Conv2d: 3-4                                           [1, 80, 56, 56]           23,040
│    │    └─BatchNorm2d: 3-5                                      [1, 80, 56, 56]           160
│    │    └─ReLU: 3-6                                             [1, 80, 56, 56]           --
├─ModuleList: 1-2                                                 --                        --
│    └─ConvBlockWithPosEncStage0: 2-3                             [1, 160, 28, 28]          250,880
│    │    └─Sequential: 3-7                                       [1, 80, 56, 56]           115,680
│    │    └─Downsample: 3-8                                       [1, 160, 28, 28]          115,200
│    └─MambaHybridLayer: 2-4                                      [1, 320, 14, 14]          --
│    │    └─ModuleList: 3-9                                       --                        1,876,000
│    │    └─Downsample: 3-10                                      [1, 320, 14, 14]          460,800
│    └─UltraScanNetLayer: 2-5                                     [1, 640, 7, 7]            --
│    │    └─ModuleList: 3-11                                      --                        13,520,960
│    │    └─Downsample: 3-12                                      [1, 640, 7, 7]            1,843,200
│    └─UltraScanNetLayer: 2-6                                     [1, 640, 7, 7]            --
│    │    └─ModuleList: 3-13                                      --                        18,739,520
├─BatchNorm2d: 1-3                                                [1, 640, 7, 7]            1,280
├─AdaptiveAvgPool2d: 1-4                                          [1, 640, 1, 1]            --
├─Linear: 1-5                                                     [1, 3]                    1,923
===================================================================================================================
Total params: 37,200,451
Trainable params: 37,200,451
Non-trainable params: 0
Total mult-adds (Units.GIGABYTES): 2.00
===================================================================================================================
Input size (MB): 0.60
Forward/backward pass size (MB): 123.23
…
